…
          "base_uri": "https://localhost:8080/",
          "height": 537
        },
        "outputId": "55d45177-5c44-4993-86e4-e394159813fb"
      },
      "source": [
        "model.summary()"
      ],
      "execution_count": 23,
      "outputs": [
        {
          "output_type": "stream",
          "text": [
            "Model: \"sequential\"\n",
            "_________________________________________________________________\n",
            "Layer (type)                 Output Shape              Param #   \n",
            "=================================================================\n",
            "rescaling_1 (Rescaling)      (None, 180, 180, 3)       0         \n",
            "_________________________________________________________________\n",
            "conv2d (Conv2D)              (None, 180, 180, 16)      448       \n",
            "_________________________________________________________________\n",
            "max_pooling2d (MaxPooling2D) (None, 90, 90, 16)        0         \n",
            "_________________________________________________________________\n",
            "conv2d_1 (Conv2D)            (None, 90, 90, 32)        4640      \n",
            "_________________________________________________________________\n",
            "max_pooling2d_1 (MaxPooling2 (None, 45, 45, 32)        0         \n",
            "_________________________________________________________________\n",
            "conv2d_2 (Conv2D)            (None, 45, 45, 64)        18496     \n",
            "_________________________________________________________________\n",
            "max_pooling2d_2 (MaxPooling2 (None, 22, 22, 64)        0         \n",
            "_________________________________________________________________\n",
            "flatten (Flatten)            (None, 30976)             0         \n",
            "_________________________________________________________________\n",
            "dense (Dense)                (None, 256)               7930112   \n",
            "_________________________________________________________________\n",
            "dense_1 (Dense)              (None, 5)                 1285      \n",
            "=================================================================\n",
            "Total params: 7,954,981\n",
            "Trainable params: 7,954,981\n",
            "Non-trainable params: 0\n",
            "_________________________________________________________________\n"
          ],
          "name": "stdout"
        }
      ]
    },
    {
      "cell_type": "code",
…
          "height": 611
        },
        "outputId": "88a95bd8-432f-4e8f-a4ce-5d20611f84f7"
      },
      "source": [
        "model.summary()"
      ],
      "execution_count": 34,
      "outputs": [
        {
          "output_type": "stream",
          "text": [
            "Model: \"sequential_2\"\n",
            "_________________________________________________________________\n",
            "Layer (type)                 Output Shape              Param #   \n",
            "=================================================================\n",
            "sequential_1 (Sequential)    (None, 180, 180, 3)       0         \n",
            "_________________________________________________________________\n",
            "rescaling_2 (Rescaling)      (None, 180, 180, 3)       0         \n",
            "_________________________________________________________________\n",
            "conv2d_3 (Conv2D)            (None, 180, 180, 16)      448       \n",
            "_________________________________________________________________\n",
            "max_pooling2d_3 (MaxPooling2 (None, 90, 90, 16)        0         \n",
            "_________________________________________________________________\n",
            "conv2d_4 (Conv2D)            (None, 90, 90, 32)        4640      \n",
            "_________________________________________________________________\n",
            "max_pooling2d_4 (MaxPooling2 (None, 45, 45, 32)        0         \n",
            "_________________________________________________________________\n",
            "conv2d_5 (Conv2D)            (None, 45, 45, 64)        18496     \n",
            "_________________________________________________________________\n",
            "max_pooling2d_5 (MaxPooling2 (None, 22, 22, 64)        0         \n",
            "_________________________________________________________________\n",
            "dropout (Dropout)            (None, 22, 22, 64)        0         \n",
            "_________________________________________________________________\n",
            "flatten_1 (Flatten)          (None, 30976)             0         \n",
            "_________________________________________________________________\n",
            "dense_2 (Dense)              (None, 128)               3965056   \n",
            "_________________________________________________________________\n",
            "dense_3 (Dense)              (None, 5)                 645       \n",
            "=================================================================\n",
            "Total params: 3,989,285\n",
            "Trainable params: 3,989,285\n",
            "Non-trainable params: 0\n",
            "_________________________________________________________________\n"
          ],
          "name": "stdout"
        }
      ]
    },
    {
      "cell_type": "code",
…
